…
tamp":1639848714122,"user_tz":-540,"elapsed":7,"user":{"displayName":"유성운","photoUrl":"https://lh3.googleusercontent.com/a/default-user=s64","userId":"04010736311021015655"}},"colab":{"base_uri":"https://localhost:8080/"},"outputId":"2ed890ca-698b-47b5-8f1b-f5f66c9b231f"},"outputs":[{"output_type":"stream","name":"stdout","text":["Model: \"sequential_5\"\n","_________________________________________________________________\n"," Layer (type)                Output Shape              Param #   \n","=================================================================\n"," conv2d_9 (Conv2D)           (None, 26, 26, 32)        320       \n","                                                                 \n"," max_pooling2d_6 (MaxPooling  (None, 13, 13, 32)       0         \n"," 2D)                                                             \n","                                                                 \n"," dropout_9 (Dropout)         (None, 13, 13, 32)        0         \n","                                                                 \n"," conv2d_10 (Conv2D)          (None, 11, 11, 64)        18496     \n","                                                                 \n"," max_pooling2d_7 (MaxPooling  (None, 5, 5, 64)         0         \n"," 2D)                                                             \n","                                                                 \n"," dropout_10 (Dropout)        (None, 5, 5, 64)          0         \n","                                                                 \n"," conv2d_11 (Conv2D)          (None, 3, 3, 64)          36928     \n","                                                                 \n"," flatten_3 (Flatten)         (None, 576)               0         \n","                                                                 \n"," dense_6 (Dense)             (None, 128)               73856     \n","                                                                 \n"," dropout_11 (Dropout)        (None, 128)               0         \n","                                                                 \n"," dense_7 (Dense)             (None, 10)                1290      \n","                                                                 \n","=================================================================\n","Total params: 130,890\n","Trainable params: 130,890\n","Non-trainable params: 0\n","_________________________________________________________________\n"]}],"source":["model = tf.keras.Sequential([\n","    tf.keras.layers.Conv2D(32, (3, 3), activatio
…
