…
\n","history = model.fit(train_generator, epochs=25, steps_per_epoch=20, validation_data = validation_generator, verbose = 1, validation_steps=3)\n","\n","model.save(\"rps.h5\")"],"execution_count":7,"outputs":[{"output_type":"stream","text":["Found 2520 images belonging to 3 classes.\n","Found 372 images belonging to 3 classes.\n","Model: \"sequential\"\n","_________________________________________________________________\n","Layer (type)                 Output Shape              Param #   \n","=================================================================\n","conv2d (Conv2D)              (None, 148, 148, 64)      1792      \n","_________________________________________________________________\n","max_pooling2d (MaxPooling2D) (None, 74, 74, 64)        0         \n","_________________________________________________________________\n","conv2d_1 (Conv2D)            (None, 72, 72, 64)        36928     \n","_________________________________________________________________\n","max_pooling2d_1 (MaxPooling2 (None, 36, 36, 64)        0         \n","_________________________________________________________________\n","conv2d_2 (Conv2D)            (None, 34, 34, 128)       73856     \n","_________________________________________________________________\n","max_pooling2d_2 (MaxPooling2 (None, 17, 17, 128)       0         \n","_________________________________________________________________\n","conv2d_3 (Conv2D)            (None, 15, 15, 128)       147584    \n","_________________________________________________________________\n","max_pooling2d_3 (MaxPooling2 (None, 7, 7, 128)         0         \n","_________________________________________________________________\n","flatten (Flatten)            (None, 6272)              0         \n","_________________________________________________________________\n","dropout (Dropout)            (None, 6272)              0         \n","_________________________________________________________________\n","dense (Dense)                (None, 512)               3211776   \n","_________________________________________________________________\n","dense_1 (Dense)              (None, 3)                 1539      \n","=================================================================\n","Total params: 3,473,475\n","Trainable params: 3,473,475\n","Non-trainable params: 0\n","_________________________________________________________________\n","Epoch 1/25\n","20/20 [==============================] - 57s 1s/step - loss: 1.4980 - accuracy: 0.3485 - val_loss: 1.0893 - val_accuracy: 0.3333\n","Epoch 2/25\n"
…
