…
i":"https://localhost:8080/"},"id":"Q7X4LDMlVvUJ","executionInfo":{"status":"ok","timestamp":1666964230671,"user_tz":-540,"elapsed":734360,"user":{"displayName":"유성운","userId":"04010736311021015655"}},"outputId":"d17ace28-8afe-429c-f29e-d4715e8a923e"},"execution_count":null,"outputs":[{"output_type":"stream","name":"stdout","text":["Model: \"sequential\"\n","_________________________________________________________________\n"," Layer (type)                Output Shape              Param #   \n","=================================================================\n"," conv2d (Conv2D)             (None, 128, 128, 64)      1792      \n","                                                                 \n"," conv2d_1 (Conv2D)           (None, 128, 128, 64)      36928     \n","                                                                 \n"," max_pooling2d (MaxPooling2D  (None, 64, 64, 64)       0         \n"," )                                                               \n","                                                                 \n"," conv2d_2 (Conv2D)           (None, 64, 64, 128)       73856     \n","                                                                 \n"," conv2d_3 (Conv2D)           (None, 64, 64, 128)       147584    \n","                                                                 \n"," max_pooling2d_1 (MaxPooling  (None, 32, 32, 128)      0         \n"," 2D)                                                             \n","                                                                 \n"," conv2d_4 (Conv2D)           (None, 32, 32, 256)       295168    \n","                                                                 \n"," conv2d_5 (Conv2D)           (None, 32, 32, 256)       590080    \n","                                                                 \n"," conv2d_6 (Conv2D)           (None, 32, 32, 256)       590080    \n","                                                                 \n"," max_pooling2d_2 (MaxPooling  (None, 16, 16, 256)      0         \n"," 2D)                                                             \n","                                                                 \n"," conv2d_7 (Conv2D)           (None, 16, 16, 512)       1180160   \n","                                                                 \n"," conv2d_8 (Conv2D)           (None, 16, 16, 512)       2359808   \n","                                                                 \n"," conv2d_9 (Conv2D)           (None, 16, 16, 512)       2359808   \n","                                                                 \n"," max_pooling2d_3 (MaxPooling  (None, 8, 8, 512)        0         \n"," 2D)                                                             \n","                                                                 \n"," conv2d_10 (Conv2D)          (None, 8, 8, 512)         2359808   \n","                                                                 \n"," conv2d_11 (Conv2D)          (None, 8, 8, 512)         2359808   \n","                                                                 \n"," conv2d_12 (Conv2D)          (None, 8, 8, 512)         2359808   \n","                                                                 \n"," max_pooling2d_4 (MaxPooling  (None, 4, 4, 512)        0         \n"," 2D)                                                             \n","                                                                 \n"," flatten (Flatten)           (None, 8192)              0         \n","                                                                 \n"," dense (Dense)               (None, 4096)              33558528  \n","                                                                 \n"," dense_1 (Dense)             (None, 4096)              16781312  \n","                                                                 \n"," dense_2 (Dense)             (None, 2)                 8194      \n","                                                                 \n","=================================================================\n","Total params: 65,062,722\n","Trainable params: 65,062,722\n","Non-trainable params: 0\n","_________________________________________________________________\n","Epoch 1/50\n","54/54 [==============================] - 30s 301ms/step - loss: 1.2642 - a
…
":369,"user":{"displayName":"유성운","userId":"04010736311021015655"}},"outputId":"402a0b71-529f-4a4a-8eed-acba80f71266"},"execution_count":10,"outputs":[{"output_type":"stream","name":"stdout","text":["Model: \"vgg16\"\n","_________________________________________________________________\n"," Layer (type)                Output Shape              Param #   \n","=================================================================\n"," input_2 (InputLayer)        [(None, 128, 128, 3)]     0         \n","                                                                 \n"," block1_conv1 (Conv2D)       (None, 128, 128, 64)      1792      \n","                                                                 \n"," block1_conv2 (Conv2D)       (None, 128, 128, 64)      36928     \n","                                                                 \n"," block1_pool (MaxPooling2D)  (None, 64, 64, 64)        0         \n","                                                                 \n"," block2_conv1 (Conv2D)       (None, 64, 64, 128)       73856     \n","                                                                 \n"," block2_conv2 (Conv2D)       (None, 64, 64, 128)       147584    \n","                                                                 \n"," block2_pool (MaxPooling2D)  (None, 32, 32, 128)       0         \n","                                                                 \n"," block3_conv1 (Conv2D)       (None, 32, 32, 256)       295168    \n","                                                                 \n"," block3_conv2 (Conv2D)       (None, 32, 32, 256)       590080    \n","                                                                 \n"," block3_conv3 (Conv2D)       (None, 32, 32, 256)       590080    \n","                                                                 \n"," block3_pool (MaxPooling2D)  (None, 16, 16, 256)       0         \n","                                                                 \n"," block4_conv1 (Conv2D)       (None, 16, 16, 512)       1180160   \n","                                                                 \n"," block4_conv2 (Conv2D)       (None, 16, 16, 512)       2359808   \n","                                                                 \n"," block4_conv3 (Conv2D)       (None, 16, 16, 512)       2359808   \n","                                                                 \n"," block4_pool (MaxPooling2D)  (None, 8, 8, 512)         0         \n","                                                                 \n"," block5_conv1 (Conv2D)       (None, 8, 8, 512)         2359808   \n","                                                                 \n"," block5_conv2 (Conv2D)       (None, 8, 8, 512)         2359808   \n","                                                                 \n"," block5_conv3 (Conv2D)       (None, 8, 8, 512)         2359808   \n","                                                                 \n"," block5_pool (MaxPooling2D)  (None, 4, 4, 512)         0         \n","                                                                 \n","=================================================================\n","Total params: 14,714,688\n","Trainable params: 0\n","Non-trainable params: 14,714,688\n","_________________________________________________________________\n"]}]},{"cell_type":"code","source":["print(X_train.shape[1:])"],"metadata":{"colab":{"bas
…
se_uri":"https://localhost:8080/"},"id":"ICM98MDmXj3W","executionInfo":{"status":"ok","timestamp":1667476071859,"user_tz":-540,"elapsed":499,"user":{"displayName":"유성운","userId":"04010736311021015655"}},"outputId":"56108f3e-7fb4-4105-85d9-87197e3d3d2a"},"execution_count":10,"outputs":[{"output_type":"stream","name":"stdout","text":["Model: \"sequential\"\n","_________________________________________________________________\n"," Layer (type)                Output Shape              Param #   \n","=================================================================\n"," vgg16 (Functional)          (None, 4, 4, 512)         14714688  \n","                                                                 \n"," flatten (Flatten)           (None, 8192)              0         \n","                                                                 \n"," activation (Activation)     (None, 8192)              0         \n","                                                                 \n"," dropout (Dropout)           (None, 8192)              0         \n","                                                                 \n"," dense (Dense)               (None, 2)                 16386     \n","                                                                 \n"," activation_1 (Activation)   (None, 2)                 0         \n","                                                                 \n","=================================================================\n","Total params: 14,731,074\n","Trainable params: 16,386\n","Non-trainable params: 14,714,688\n","_________________________________________________________________\n"]}]},{"cell_type":"code","source":["####모델 컴파일 (실행 옵션 설정)\n","finetune_model.compil
…
